…
 since 0.13 and may be removed in the future. The current behavior is equivalent to passing `weights=ResNet50_Weights.IMAGENET1K_V1`. You can also use `weights=ResNet50_Weights.DEFAULT` to get the most up-to-date weights.\n  warnings.warn(msg)\n","output_type":"stream"},{"output_type":"display_data","data":{"text/plain":"model.safetensors:   0%|          | 0.00/461M [00:00<?, ?B/s]","application/vnd.jupyter.widget-view+json":{"version_major":2,"version_minor":0,"model_id":"99dc4576c2d44edcad3055790e1fa646"}},"metadata":{}},{"name":"stdout","text":"GoogLeNet(\n  (conv1): BasicConv2d(\n    (conv): Conv2d(3, 64, kernel_size=(7, 7), stride=(2, 2), padding=(3, 3), bias=False)\n    (bn): BatchNorm2d(64, eps=0.001, momentum=0.1, affine=True, track_running_stats=True)\n  )\n  (maxpool1): MaxPool2d(kernel_size=3, stride=2, padding=0, dilation=1, ceil_mode=True)\n  (conv2): BasicConv2d(\n    (conv): Conv2d(64, 64, kernel_size=(1, 1), stride=(1, 1), bias=False)\n    (bn): BatchNorm2d(64, eps=0.001, momentum=0.1, affine=True, track_running_stats=True)\n  )\n  (conv3): BasicConv2d(\n    (conv): Conv2d(64, 192, kernel_size=(3, 3), stride=(1, 1), padding=(1, 1), bias=False)\n    (bn): BatchNorm2d(192, eps=0.001, momentum=0.1, affine=True, track_running_stats=True)\n  )\n  (maxpool2): MaxPool2d(kernel_size=3, stride=2, padding=0, dilation=1, ceil_mode=True)\n  (inception3a): Inception(\n    (branch1): BasicConv2d(\n      (conv): Conv2d(192, 64, kernel_size=(1, 1), stride=(1, 1), bias=False)\n      (bn): BatchNorm2d(64, eps=0.001, momentum=0.1, affine=True, track_running_stats=True)\n    )\n    (branch2): Sequential(\n      (0): BasicConv2d(\n        (conv): Conv2d(192, 96, kernel_size=(1, 1), stride=(1, 1), bias=False)\n        (bn): BatchNorm2d(96, eps=0.001, momentum=0.1, affine=True, track_running_stats=True)\n      )\n      (1): BasicConv2d(\n        (conv): Conv2d(96, 128, kernel_size=(3, 3), stride=(1, 1), padding=(1, 1), bias=False)\n        (bn): BatchNorm2d(128, eps=0.001, momentum=0.1, affine=True, track_running_stats=True)\n      )\n    )\n    (branch3): Sequential(\n      (0): BasicConv2d(\n        (conv): Conv2d(192, 16, kernel_size=(1, 1), stride=(1, 1), bias=False)\n        (bn): BatchNorm2d(16, eps=0.001, momentum=0.1, affine=True, track_running_stats=True)\n      )\n      (1): BasicConv2d(\n        (conv): Conv2d(16, 32, kernel_size=(3, 3), stride=(1, 1), padding=(1, 1), bias=False)\n        (bn): BatchNorm2d(32, eps=0.001, momentum=0.1, affine=True, track_running_stats=True)\n      )\n    )\n    (branch4): Sequential(\n      (0): MaxPool2d(kernel_size=3, stride=1, padding=1, dilation=1, ceil_mode=True)\n      (1): BasicConv2d(\n        (conv): Conv2d(192, 32, kernel_size=(1, 1), stride=(1, 1), bias=False)\n        (bn): BatchNorm2d(32, eps=0.001, momentum=0.1, affine=True, track_running_stats=True)\n      )\n    )\n  )\n  (inception3b): Inception(\n    (branch1): BasicConv2d(\n      (conv): Conv2d(256, 128, kernel_size=(1, 1), stride=(1, 1), bias=False)\n      (bn): BatchNorm2d(128, eps=0.001, momentum=0.1, affine=True, track_running_stats=True)\n    )\n    (branch2): Sequential(\n      (0): BasicConv2d(\n        (conv): Conv2d(256, 128, kernel_size=(1, 1), stride=(1, 1), bias=False)\n        (bn): BatchNorm2d(128, eps=0.001, momentum=0.1, affine=True, track_running_stats=True)\n      )\n      (1): BasicConv2d(\n        (conv): Conv2d(128, 192, kernel_size=(3, 3), stride=(1, 1), padding=(1, 1), bias=False)\n        (bn): BatchNorm2d(192, eps=0.001, momentum=0.1, affine=True, track_running_stats=True)\n      )\n    )\n    (branch3): Sequential(\n      (0): BasicConv2d(\n        (conv): Conv2d(256, 32, kernel_size=(1, 1), stride=(1, 1), bias=False)\n        (bn): BatchNorm2d(32, eps=0.001, momentum=0.1, affine=True, track_running_stats=True)\n      )\n      (1): BasicConv2d(\n        (conv): Conv2d(32, 96, kernel_size=(3, 3), stride=(1, 1), padding=(1, 1), bias=False)\n        (bn): BatchNorm2d(96, eps=0.001, momentum=0.1, affine=True, track_running_stats=True)\n      )\n    )\n    (branch4): Sequential(\n      (0): MaxPool2d(kernel_size=3, stride=1, padding=1, dilation=1, ceil_mode=True)\n      (1): BasicConv2d(\n        (conv): Conv2d(256, 64, kernel_size=(1, 1), stride=(1, 1), bias=False)\n        (bn): BatchNorm2d(64, eps=0.001, momentum=0.1, affine=True, track_running_stats=True)\n      )\n    )\n  )\n  (maxpool3): MaxPool2d(kernel_size=3, stride=2, padding=0, dilation=1, ceil_mode=True)\n  (inception4a): Inception(\n    (branch1): BasicConv2d(\n      (conv): Conv2d(480, 192, kernel_size=(1, 1), stride=(1, 1), bias=False)\n      (bn): BatchNorm2d(192, eps=0.001, momentum=0.1, affine=True, track_running_stats=True)\n    )\n    (branch2): Sequential(\n      (0): BasicConv2d(\n        (conv): Conv2d(480, 96, kernel_size=(1, 1), stride=(1, 1), bias=False)\n        (bn): BatchNorm2d(96, eps=0.001, momentum=0.1, affine=True, track_running_stats=True)\n      )\n      (1): BasicConv2d(\n        (conv): Conv2d(96, 208, kernel_size=(3, 3), stride=(1, 1), padding=(1, 1), bias=False)\n        (bn): BatchNorm2d(208, eps=0.001, momentum=0.1, affine=True, track_running_stats=True)\n      )\n    )\n    (branch3): Sequential(\n      (0): BasicConv2d(\n        (conv): Conv2d(480, 16, kernel_size=(1, 1), stride=(1, 1), bias=False)\n        (bn): BatchNorm2d(16, eps=0.001, momentum=0.1, affine=True, track_running_stats=True)\n      )\n      (1): BasicConv2d(\n        (conv): Conv2d(16, 48, kernel_size=(3, 3), stride=(1, 1), padding=(1, 1), bias=False)\n        (bn): BatchNorm2d(48, eps=0.001, momentum=0.1, affine=True, track_running_stats=True)\n      )\n    )\n    (branch4): Sequential(\n      (0): MaxPool2d(kernel_size=3, stride=1, padding=1, dilation=1, ceil_mode=True)\n      (1): BasicConv2d(\n        (conv): Conv2d(480, 64, kernel_size=(1, 1), stride=(1, 1), bias=False)\n        (bn): BatchNorm2d(64, eps=0.001, momentum=0.1, affine=True, track_running_stats=True)\n      )\n    )\n  )\n  (inception4b): Inception(\n    (branch1): BasicConv2d(\n      (conv): Conv2d(512, 160, kernel_size=(1, 1), stride=(1, 1), bias=False)\n      (bn): BatchNorm2d(160, eps=0.001, momentum=0.1, affine=True, track_running_stats=True)\n    )\n    (branch2): Sequential(\n      (0): BasicConv2d(\n        (conv): Conv2d(512, 112, kernel_size=(1, 1), stride=(1, 1), bias=False)\n        (bn): BatchNorm2d(112, eps=0.001, momentum=0.1, affine=True, track_running_stats=True)\n      )\n      (1): BasicConv2d(\n        (conv): Conv2d(112, 224, kernel_size=(3, 3), stride=(1, 1), padding=(1, 1), bias=False)\n        (bn): BatchNorm2d(224, eps=0.001, momentum=0.1, affine=True, track_running_stats=True)\n      )\n    )\n    (branch3): Sequential(\n      (0): BasicConv2d(\n        (conv): Conv2d(512, 24, kernel_size=(1, 1), stride=(1, 1), bias=False)\n        (bn): BatchNorm2d(24, eps=0.001, momentum=0.1, affine=True, track_running_stats=True)\n      )\n      (1): BasicConv2d(\n        (conv): Conv2d(24, 64, kernel_size=(3, 3), stride=(1, 1), padding=(1, 1), bias=False)\n        (bn): BatchNorm2d(64, eps=0.001, momentum=0.1, affine=True, track_running_stats=True)\n      )\n    )\n    (branch4): Sequential(\n      (0): MaxPool2d(kernel_size=3, stride=1, padding=1, dilation=1, ceil_mode=True)\n      (1): BasicConv2d(\n        (conv): Conv2d(512, 64, kernel_size=(1, 1), stride=(1, 1), bias=False)\n        (bn): BatchNorm2d(64, eps=0.001, momentum=0.1, affine=True, track_running_stats=True)\n      )\n    )\n  )\n  (inception4c): Inception(\n    (branch1): BasicConv2d(\n      (conv): Conv2d(512, 128, kernel_size=(1, 1), stride=(1, 1), bias=False)\n      (bn): BatchNorm2d(128, eps=0.001, momentum=0.1, affine=True, track_running_stats=True)\n    )\n    (branch2): Sequential(\n      (0): BasicConv2d(\n        (conv): Conv2d(512, 128, kernel_size=(1, 1), stride=(1, 1), bias=False)\n        (bn): BatchNorm2d(128, eps=0.001, momentum=0.1, affine=True, track_running_stats=True)\n      )\n      (1): BasicConv2d(\n        (conv): Conv2d(128, 256, kernel_size=(3, 3), stride=(1, 1), padding=(1, 1), bias=False)\n        (bn): BatchNorm2d(256, eps=0.001, momentum=0.1, affine=True, track_running_stats=True)\n      )\n    )\n    (branch3): Sequential(\n      (0): BasicConv2d(\n        (conv): Conv2d(512, 24, kernel_size=(1, 1), stride=(1, 1), bias=False)\n        (bn): BatchNorm2d(24, eps=0.001, momentum=0.1, affine=True, track_running_stats=True)\n      )\n      (1): BasicConv2d(\n        (conv): Conv2d(24, 64, kernel_size=(3, 3), stride=(1, 1), padding=(1, 1), bias=False)\n        (bn): BatchNorm2d(64, eps=0.001, momentum=0.1, affine=True, track_running_stats=True)\n      )\n    )\n    (branch4): Sequential(\n      (0): MaxPool2d(kernel_size=3, stride=1, padding=1, dilation=1, ceil_mode=True)\n      (1): BasicConv2d(\n        (conv): Conv2d(512, 64, kernel_size=(1, 1), stride=(1, 1), bias=False)\n        (bn): BatchNorm2d(64, eps=0.001, momentum=0.1, affine=True, track_running_stats=True)\n      )\n    )\n  )\n  (inception4d): Inception(\n    (branch1): BasicConv2d(\n      (conv): Conv2d(512, 112, kernel_size=(1, 1), stride=(1, 1), bias=False)\n      (bn): BatchNorm2d(112, eps=0.001, momentum=0.1, affine=True, track_running_stats=True)\n    )\n    (branch2): Sequential(\n      (0): BasicConv2d(\n        (conv): Conv2d(512, 144, kernel_size=(1, 1), stride=(1, 1), bias=False)\n        (bn): BatchNorm2d(144, eps=0.001, momentum=0.1, affine=True, track_running_stats=True)\n      )\n      (1): BasicConv2d(\n        (conv): Conv2d(144, 288, kernel_size=(3, 3), stride=(1, 1), padding=(1, 1), bias=False)\n        (bn): BatchNorm2d(288, eps=0.001, momentum=0.1, affine=True, track_running_stats=True)\n      )\n    )\n    (branch3): Sequential(\n      (0): BasicConv2d(\n        (conv): Conv2d(512, 32, kernel_size=(1, 1), stride=(1, 1), bias=False)\n        (bn): BatchNorm2d(32, eps=0.001, momentum=0.1, affine=True, track_running_stats=True)\n      )\n      (1): BasicConv2d(\n        (conv): Conv2d(32, 64, kernel_size=(3, 3), stride=(1, 1), padding=(1, 1), bias=False)\n        (bn): BatchNorm2d(64, eps=0.001, momentum=0.1, affine=True, track_running_stats=True)\n      )\n    )\n    (branch4): Sequential(\n      (0): MaxPool2d(kernel_size=3, stride=1, padding=1, dilation=1, ceil_mode=True)\n      (1): BasicConv2d(\n        (conv): Conv2d(512, 64, kernel_size=(1, 1), stride=(1, 1), bias=False)\n        (bn): BatchNorm2d(64, eps=0.001, momentum=0.1, affine=True, track_running_stats=True)\n      )\n    )\n  )\n  (inception4e): Inception(\n    (branch1): BasicConv2d(\n      (conv): Conv2d(528, 256, kernel_size=(1, 1), stride=(1, 1), bias=False)\n      (bn): BatchNorm2d(256, eps=0.001, momentum=0.1, affine=True, track_running_stats=True)\n    )\n    (branch2): Sequential(\n      (0): BasicConv2d(\n        (conv): Conv2d(528, 160, kernel_size=(1, 1), stride=(1, 1), bias=False)\n        (bn): BatchNorm2d(160, eps=0.001, momentum=0.1, affine=True, track_running_stats=True)\n      )\n      (1): BasicConv2d(\n        (conv): Conv2d(160, 320, kernel_size=(3, 3), stride=(1, 1), padding=(1, 1), bias=False)\n        (bn): BatchNorm2d(320, eps=0.001, momentum=0.1, affine=True, track_running_stats=True)\n      )\n    )\n    (branch3): Sequential(\n      (0): BasicConv2d(\n        (conv): Conv2d(528, 32, kernel_size=(1, 1), stride=(1, 1), bias=False)\n        (bn): BatchNorm2d(32, eps=0.001, momentum=0.1, affine=True, track_running_stats=True)\n      )\n      (1): BasicConv2d(\n        (conv): Conv2d(32, 128, kernel_size=(3, 3), stride=(1, 1), padding=(1, 1), bias=False)\n        (bn): BatchNorm2d(128, eps=0.001, momentum=0.1, affine=True, track_running_stats=True)\n      )\n    )\n    (branch4): Sequential(\n      (0): MaxPool2d(kernel_size=3, stride=1, padding=1, dilation=1, ceil_mode=True)\n      (1): BasicConv2d(\n        (conv): Conv2d(528, 128, kernel_size=(1, 1), stride=(1, 1), bias=False)\n        (bn): BatchNorm2d(128, eps=0.001, momentum=0.1, affine=True, track_running_stats=True)\n      )\n    )\n  )\n  (maxpool4): MaxPool2d(kernel_size=2, stride=2, padding=0, dilation=1, ceil_mode=True)\n  (inception5a): Inception(\n    (branch1): BasicConv2d(\n      (conv): Conv2d(832, 256, kernel_size=(1, 1), stride=(1, 1), bias=False)\n      (bn): BatchNorm2d(256, eps=0.001, momentum=0.1, affine=True, track_running_stats=True)\n    )\n    (branch2): Sequential(\n      (0): BasicConv2d(\n        (conv): Conv2d(832, 160, kernel_size=(1, 1), stride=(1, 1), bias=False)\n        (bn): BatchNorm2d(160, eps=0.001, momentum=0.1, affine=True, track_running_stats=True)\n      )\n      (1): BasicConv2d(\n        (conv): Conv2d(160, 320, kernel_size=(3, 3), stride=(1, 1), padding=(1, 1), bias=False)\n        (bn): BatchNorm2d(320, eps=0.001, momentum=0.1, affine=True, track_running_stats=True)\n      )\n    )\n    (branch3): Sequential(\n      (0): BasicConv2d(\n        (conv): Conv2d(832, 32, kernel_size=(1, 1), stride=(1, 1), bias=False)\n        (bn): BatchNorm2d(32, eps=0.001, momentum=0.1, affine=True, track_running_stats=True)\n      )\n      (1): BasicConv2d(\n        (conv): Conv2d(32, 128, kernel_size=(3, 3), stride=(1, 1), padding=(1, 1), bias=False)\n        (bn): BatchNorm2d(128, eps=0.001, momentum=0.1, affine=True, track_running_stats=True)\n      )\n    )\n    (branch4): Sequential(\n      (0): MaxPool2d(kernel_size=3, stride=1, padding=1, dilation=1, ceil_mode=True)\n      (1): BasicConv2d(\n        (conv): Conv2d(832, 128, kernel_size=(1, 1), stride=(1, 1), bias=False)\n        (bn): BatchNorm2d(128, eps=0.001, momentum=0.1, affine=True, track_running_stats=True)\n      )\n    )\n  )\n  (inception5b): Inception(\n    (branch1): BasicConv2d(\n      (conv): Conv2d(832, 384, kernel_size=(1, 1), stride=(1, 1), bias=False)\n      (bn): BatchNorm2d(384, eps=0.001, momentum=0.1, affine=True, track_running_stats=True)\n    )\n    (branch2): Sequential(\n      (0): BasicConv2d(\n        (conv): Conv2d(832, 192, kernel_size=(1, 1), stride=(1, 1), bias=False)\n        (bn): BatchNorm2d(192, eps=0.001, momentum=0.1, affine=True, track_running_stats=True)\n      )\n      (1): BasicConv2d(\n        (conv): Conv2d(192, 384, kernel_size=(3, 3), stride=(1, 1), padding=(1, 1), bias=False)\n        (bn): BatchNorm2d(384, eps=0.001, momentum=0.1, affine=True, track_running_stats=True)\n      )\n    )\n    (branch3): Sequential(\n      (0): BasicConv2d(\n        (conv): Conv2d(832, 48, kernel_size=(1, 1), stride=(1, 1), bias=False)\n        (bn): BatchNorm2d(48, eps=0.001, momentum=0.1, affine=True, track_running_stats=True)\n      )\n      (1): BasicConv2d(\n        (conv): Conv2d(48, 128, kernel_size=(3, 3), stride=(1, 1), padding=(1, 1), bias=False)\n        (bn): BatchNorm2d(128, eps=0.001, momentum=0.1, affine=True, track_running_stats=True)\n      )\n    )\n    (branch4): Sequential(\n      (0): MaxPool2d(kernel_size=3, stride=1, padding=1, dilation=1, ceil_mode=True)\n      (1): BasicConv2d(\n        (conv): Conv2d(832, 128, kernel_size=(1, 1), stride=(1, 1), bias=False)\n        (bn): BatchNorm2d(128, eps=0.001, momentum=0.1, affine=True, track_running_stats=True)\n      )\n    )\n  )\n  (aux1): None\n  (aux2): None\n  (avgpool): AdaptiveAvgPool2d(output_size=(1, 1))\n  (dropout): Dropout(p=0.2, inplace=False)\n  (fc): Linear(in_features=1024, out_features=1000, bias=True)\n)\nResNet(\n  (conv1): Conv2d(3, 64, kernel_size=(7, 7), stride=(2, 2), padding=(3, 3), bias=False)\n  (bn1): BatchNorm2d(64, eps=1e-05, momentum=0.1, affine=True, track_running_stats=True)\n  (relu): ReLU(inplace=True)\n  (maxpool): MaxPool2d(kernel_size=3, stride=2, padding=1, dilation=1, ceil_mode=False)\n  (layer1): Sequential(\n    (0): Bottleneck(\n      (conv1): Conv2d(64, 64, kernel_size=(1, 1), stride=(1, 1), bias=False)\n      (bn1): BatchNorm2d(64, eps=1e-05, momentum=0.1, affine=True, track_running_stats=True)\n      (conv2): Conv2d(64, 64, kernel_size=(3, 3), stride=(1, 1), padding=(1, 1), bias=False)\n      (bn2): BatchNorm2d(64, eps=1e-05, momentum=0.1, affine=True, track_running_stats=True)\n      (conv3): Conv2d(64, 256, kernel_size=(1, 1), stride=(1, 1), bias=False)\n      (bn3): BatchNorm2d(256, eps=1e-05, momentum=0.1, affine=True, track_running_stats=True)\n      (relu): ReLU(inplace=True)\n      (downsample): Sequential(\n        (0): Conv2d(64, 256, kernel_size=(1, 1), stride=(1, 1), bias=False)\n        (1): BatchNorm2d(256, eps=1e-05, momentum=0.1, affine=True, track_running_stats=True)\n      )\n    )\n    (1): Bottleneck(\n      (conv1): Conv2d(256, 64, kernel_size=(1, 1), stride=(1, 1), bias=False)\n      (bn1): BatchNorm2d(64, eps=1e-05, momentum=0.1, affine=True, track_running_stats=True)\n      (conv2): Conv2d(64, 64, kernel_size=(3, 3), stride=(1, 1), padding=(1, 1), bias=False)\n      (bn2): BatchNorm2d(64, eps=1e-05, momentum=0.1, affine=True, track_running_stats=True)\n      (conv3): Conv2d(64, 256, kernel_size=(1, 1), stride=(1, 1), bias=False)\n      (bn3): BatchNorm2d(256, eps=1e-05, momentum=0.1, affine=True, track_running_stats=True)\n      (relu): ReLU(inplace=True)\n    )\n    (2): Bottleneck(\n      (conv1): Conv2d(256, 64, kernel_size=(1, 1), stride=(1, 1), bias=False)\n      (bn1): BatchNorm2d(64, eps=1e-05, momentum=0.1, affine=True, track_running_stats=True)\n      (conv2): Conv2d(64, 64, kernel_size=(3, 3), stride=(1, 1), padding=(1, 1), bias=False)\n      (bn2): BatchNorm2d(64, eps=1e-05, momentum=0.1, affine=True, track_running_stats=True)\n      (conv3): Conv2d(64, 256, kernel_size=(1, 1), stride=(1, 1), bias=False)\n      (bn3): BatchNorm2d(256, eps=1e-05, momentum=0.1, affine=True, track_running_stats=True)\n      (relu): ReLU(inplace=True)\n    )\n  )\n  (layer2): Sequential(\n    (0): Bottleneck(\n      (conv1): Conv2d(256, 128, kernel_size=(1, 1), stride=(1, 1), bias=False)\n      (bn1): BatchNorm2d(128, eps=1e-05, momentum=0.1, affine=True, track_running_stats=True)\n      (conv2): Conv2d(128, 128, kernel_size=(3, 3), stride=(2, 2), padding=(1, 1), bias=False)\n      (bn2): BatchNorm2d(128, eps=1e-05, momentum=0.1, affine=True, track_running_stats=True)\n      (conv3): Conv2d(128, 512, kernel_size=(1, 1), stride=(1, 1), bias=False)\n      (bn3): BatchNorm2d(512, eps=1e-05, momentum=0.1, affine=True, track_running_stats=True)\n      (relu): ReLU(inplace=True)\n      (downsample): Sequential(\n        (0): Conv2d(256, 512, kernel_size=(1, 1), stride=(2, 2), bias=False)\n        (1): BatchNorm2d(512, eps=1e-05, momentum=0.1, affine=True, track_running_stats=True)\n      )\n    )\n    (1): Bottleneck(\n      (conv1): Conv2d(512, 128, kernel_size=(1, 1), stride=(1, 1), bias=False)\n      (bn1): BatchNorm2d(128, eps=1e-05, momentum=0.1, affine=True, track_running_stats=True)\n      (conv2): Conv2d(128, 128, kernel_size=(3, 3), stride=(1, 1), padding=(1, 1), bias=False)\n      (bn2): BatchNorm2d(128, eps=1e-05, momentum=0.1, affine=True, track_running_stats=True)\n      (conv3): Conv2d(128, 512, kernel_size=(1, 1), stride=(1, 1), bias=False)\n      (bn3): BatchNorm2d(512, eps=1e-05, momentum=0.1, affine=True, track_running_stats=True)\n      (relu): ReLU(inplace=True)\n    )\n    (2): Bottleneck(\n      (conv1): Conv2d(512, 128, kernel_size=(1, 1), stride=(1, 1), bias=False)\n      (bn1): BatchNorm2d(128, eps=1e-05, momentum=0.1, affine=True, track_running_stats=True)\n      (conv2): Conv2d(128, 128, kernel_size=(3, 3), stride=(1, 1), padding=(1, 1), bias=False)\n      (bn2): BatchNorm2d(128, eps=1e-05, momentum=0.1, affine=True, track_running_stats=True)\n      (conv3): Conv2d(128, 512, kernel_size=(1, 1), stride=(1, 1), bias=False)\n      (bn3): BatchNorm2d(512, eps=1e-05, momentum=0.1, affine=True, track_running_stats=True)\n      (relu): ReLU(inplace=True)\n    )\n    (3): Bottleneck(\n      (conv1): Conv2d(512, 128, kernel_size=(1, 1), stride=(1, 1), bias=False)\n      (bn1): BatchNorm2d(128, eps=1e-05, momentum=0.1, affine=True, track_running_stats=True)\n      (conv2): Conv2d(128, 128, kernel_size=(3, 3), stride=(1, 1), padding=(1, 1), bias=False)\n      (bn2): BatchNorm2d(128, eps=1e-05, momentum=0.1, affine=True, track_running_stats=True)\n      (conv3): Conv2d(128, 512, kernel_size=(1, 1), stride=(1, 1), bias=False)\n      (bn3): BatchNorm2d(512, eps=1e-05, momentum=0.1, affine=True, track_running_stats=True)\n      (relu): ReLU(inplace=True)\n    )\n  )\n  (layer3): Sequential(\n    (0): Bottleneck(\n      (conv1): Conv2d(512, 256, kernel_size=(1, 1), stride=(1, 1), bias=False)\n      (bn1): BatchNorm2d(256, eps=1e-05, momentum=0.1, affine=True, track_running_stats=True)\n      (conv2): Conv2d(256, 256, kernel_size=(3, 3), stride=(2, 2), padding=(1, 1), bias=False)\n      (bn2): BatchNorm2d(256, eps=1e-05, momentum=0.1, affine=True, track_running_stats=True)\n      (conv3): Conv2d(256, 1024, kernel_size=(1, 1), stride=(1, 1), bias=False)\n      (bn3): BatchNorm2d(1024, eps=1e-05, momentum=0.1, affine=True, track_running_stats=True)\n      (relu): ReLU(inplace=True)\n      (downsample): Sequential(\n        (0): Conv2d(512, 1024, kernel_size=(1, 1), stride=(2, 2), bias=False)\n        (1): BatchNorm2d(1024, eps=1e-05, momentum=0.1, affine=True, track_running_stats=True)\n      )\n    )\n    (1): Bottleneck(\n      (conv1): Conv2d(1024, 256, kernel_size=(1, 1), stride=(1, 1), bias=False)\n      (bn1): BatchNorm2d(256, eps=1e-05, momentum=0.1, affine=True, track_running_stats=True)\n      (conv2): Conv2d(256, 256, kernel_size=(3, 3), stride=(1, 1), padding=(1, 1), bias=False)\n      (bn2): BatchNorm2d(256, eps=1e-05, momentum=0.1, affine=True, track_running_stats=True)\n      (conv3): Conv2d(256, 1024, kernel_size=(1, 1), stride=(1, 1), bias=False)\n      (bn3): BatchNorm2d(1024, eps=1e-05, momentum=0.1, affine=True, track_running_stats=True)\n      (relu): ReLU(inplace=True)\n    )\n    (2): Bottleneck(\n      (conv1): Conv2d(1024, 256, kernel_size=(1, 1), stride=(1, 1), bias=False)\n      (bn1): BatchNorm2d(256, eps=1e-05, momentum=0.1, affine=True, track_running_stats=True)\n      (conv2): Conv2d(256, 256, kernel_size=(3, 3), stride=(1, 1), padding=(1, 1), bias=False)\n      (bn2): BatchNorm2d(256, eps=1e-05, momentum=0.1, affine=True, track_running_stats=True)\n      (conv3): Conv2d(256, 1024, kernel_size=(1, 1), stride=(1, 1), bias=False)\n      (bn3): BatchNorm2d(1024, eps=1e-05, momentum=0.1, affine=True, track_running_stats=True)\n      (relu): ReLU(inplace=True)\n    )\n    (3): Bottleneck(\n      (conv1): Conv2d(1024, 256, kernel_size=(1, 1), stride=(1, 1), bias=False)\n      (bn1): BatchNorm2d(256, eps=1e-05, momentum=0.1, affine=True, track_running_stats=True)\n      (conv2): Conv2d(256, 256, kernel_size=(3, 3), stride=(1, 1), padding=(1, 1), bias=False)\n      (bn2): BatchNorm2d(256, eps=1e-05, momentum=0.1, affine=True, track_running_stats=True)\n      (conv3): Conv2d(256, 1024, kernel_size=(1, 1), stride=(1, 1), bias=False)\n      (bn3): BatchNorm2d(1024, eps=1e-05, momentum=0.1, affine=True, track_running_stats=True)\n      (relu): ReLU(inplace=True)\n    )\n    (4): Bottleneck(\n      (conv1): Conv2d(1024, 256, kernel_size=(1, 1), stride=(1, 1), bias=False)\n      (bn1): BatchNorm2d(256, eps=1e-05, momentum=0.1, affine=True, track_running_stats=True)\n      (conv2): Conv2d(256, 256, kernel_size=(3, 3), stride=(1, 1), padding=(1, 1), bias=False)\n      (bn2): BatchNorm2d(256, eps=1e-05, momentum=0.1, affine=True, track_running_stats=True)\n      (conv3): Conv2d(256, 1024, kernel_size=(1, 1), stride=(1, 1), bias=False)\n      (bn3): BatchNorm2d(1024, eps=1e-05, momentum=0.1, affine=True, track_running_stats=True)\n      (relu): ReLU(inplace=True)\n    )\n    (5): Bottleneck(\n      (conv1): Conv2d(1024, 256, kernel_size=(1, 1), stride=(1, 1), bias=False)\n      (bn1): BatchNorm2d(256, eps=1e-05, momentum=0.1, affine=True, track_running_stats=True)\n      (conv2): Conv2d(256, 256, kernel_size=(3, 3), stride=(1, 1), padding=(1, 1), bias=False)\n      (bn2): BatchNorm2d(256, eps=1e-05, momentum=0.1, affine=True, track_running_stats=True)\n      (conv3): Conv2d(256, 1024, kernel_size=(1, 1), stride=(1, 1), bias=False)\n      (bn3): BatchNorm2d(1024, eps=1e-05, momentum=0.1, affine=True, track_running_stats=True)\n      (relu): ReLU(inplace=True)\n    )\n  )\n  (layer4): Sequential(\n    (0): Bottleneck(\n      (conv1): Conv2d(1024, 512, kernel_size=(1, 1), stride=(1, 1), bias=False)\n      (bn1): BatchNorm2d(512, eps=1e-05, momentum=0.1, affine=True, track_running_stats=True)\n      (conv2): Conv2d(512, 512, kernel_size=(3, 3), stride=(2, 2), padding=(1, 1), bias=False)\n      (bn2): BatchNorm2d(512, eps=1e-05, momentum=0.1, affine=True, track_running_stats=True)\n      (conv3): Conv2d(512, 2048, kernel_size=(1, 1), stride=(1, 1), bias=False)\n      (bn3): BatchNorm2d(2048, eps=1e-05, momentum=0.1, affine=True, track_running_stats=True)\n      (relu): ReLU(inplace=True)\n      (downsample): Sequential(\n        (0): Conv2d(1024, 2048, kernel_size=(1, 1), stride=(2, 2), bias=False)\n        (1): BatchNorm2d(2048, eps=1e-05, momentum=0.1, affine=True, track_running_stats=True)\n      )\n    )\n    (1): Bottleneck(\n      (conv1): Conv2d(2048, 512, kernel_size=(1, 1), stride=(1, 1), bias=False)\n      (bn1): BatchNorm2d(512, eps=1e-05, momentum=0.1, affine=True, track_running_stats=True)\n      (conv2): Conv2d(512, 512, kernel_size=(3, 3), stride=(1, 1), padding=(1, 1), bias=False)\n      (bn2): BatchNorm2d(512, eps=1e-05, momentum=0.1, affine=True, track_running_stats=True)\n      (conv3): Conv2d(512, 2048, kernel_size=(1, 1), stride=(1, 1), bias=False)\n      (bn3): BatchNorm2d(2048, eps=1e-05, momentum=0.1, affine=True, track_running_stats=True)\n      (relu): ReLU(inplace=True)\n    )\n    (2): Bottleneck(\n      (conv1): Conv2d(2048, 512, kernel_size=(1, 1), stride=(1, 1), bias=False)\n      (bn1): BatchNorm2d(512, eps=1e-05, momentum=0.1, affine=True, track_running_stats=True)\n      (conv2): Conv2d(512, 512, kernel_size=(3, 3), stride=(1, 1), padding=(1, 1), bias=False)\n      (bn2): BatchNorm2d(512, eps=1e-05, momentum=0.1, affine=True, track_running_stats=True)\n      (conv3): Conv2d(512, 2048, kernel_size=(1, 1), stride=(1, 1), bias=False)\n      (bn3): BatchNorm2d(2048, eps=1e-05, momentum=0.1, affine=True, track_running_stats=True)\n      (relu): ReLU(inplace=True)\n    )\n  )\n  (avgpool): AdaptiveAvgPool2d(output_size=(1, 1))\n  (fc): Linear(in_features=2048, out_features=1000, bias=True)\n)\nResNet(\n  (conv1): Sequential(\n    (0): Conv2d(3, 64, kernel_size=(3, 3), stride=(2, 2), padding=(1, 1), bias=False)\n    (1): BatchNorm2d(64, eps=1e-05, momentum=0.1, affine=True, track_running_stats=True)\n    (2): ReLU(inplace=True)\n    (3): Conv2d(64, 64, kernel_size=(3, 3), stride=(1, 1), padding=(1, 1), bias=False)\n    (4): BatchNorm2d(64, eps=1e-05, momentum=0.1, affine=True, track_running_stats=True)\n    (5): ReLU(inplace=True)\n    (6): Conv2d(64, 128, kernel_size=(3, 3), stride=(1, 1), padding=(1, 1), bias=False)\n  )\n  (bn1): BatchNorm2d(128, eps=1e-05, momentum=0.1, affine=True, track_running_stats=True)\n  (act1): ReLU(inplace=True)\n  (maxpool): MaxPool2d(kernel_size=3, stride=2, padding=1, dilation=1, ceil_mode=False)\n  (layer1): Sequential(\n    (0): Bottleneck(\n      (conv1): Conv2d(128, 128, kernel_size=(1, 1), stride=(1, 1), bias=False)\n      (bn1): BatchNorm2d(128, eps=1e-05, momentum=0.1, affine=True, track_running_stats=True)\n      (act1): ReLU(inplace=True)\n      (conv2): Conv2d(128, 256, kernel_size=(3, 3), stride=(1, 1), padding=(1, 1), groups=64, bias=False)\n      (bn2): BatchNorm2d(256, eps=1e-05, momentum=0.1, affine=True, track_running_stats=True)\n      (drop_block): Identity()\n      (act2): ReLU(inplace=True)\n      (aa): Identity()\n      (conv3): Conv2d(256, 256, kernel_size=(1, 1), stride=(1, 1), bias=False)\n      (bn3): BatchNorm2d(256, eps=1e-05, momentum=0.1, affine=True, track_running_stats=True)\n      (se): SEModule(\n        (fc1): Conv2d(256, 16, kernel_size=(1, 1), stride=(1, 1))\n        (bn): Identity()\n        (act): ReLU(inplace=True)\n        (fc2): Conv2d(16, 256, kernel_size=(1, 1), stride=(1, 1))\n        (gate): Sigmoid()\n      )\n      (act3): ReLU(inplace=True)\n      (downsample): Sequential(\n        (0): Conv2d(128, 256, kernel_size=(1, 1), stride=(1, 1), bias=False)\n        (1): BatchNorm2d(256, eps=1e-05, momentum=0.1, affine=True, track_running_stats=True)\n      )\n    )\n    (1): Bottleneck(\n      (conv1): Conv2d(256, 128, kernel_size=(1, 1), stride=(1, 1), bias=False)\n      (bn1): BatchNorm2d(128, eps=1e-05, momentum=0.1, affine=True, track_running_stats=True)\n      (act1): ReLU(inplace=True)\n      (conv2): Conv2d(128, 256, kernel_size=(3, 3), stride=(1, 1), padding=(1, 1), groups=64, bias=False)\n      (bn2): BatchNorm2d(256, eps=1e-05, momentum=0.1, affine=True, track_running_stats=True)\n      (drop_block): Identity()\n      (act2): ReLU(inplace=True)\n      (aa): Identity()\n      (conv3): Conv2d(256, 256, kernel_size=(1, 1), stride=(1, 1), bias=False)\n      (bn3): BatchNorm2d(256, eps=1e-05, momentum=0.1, affine=True, track_running_stats=True)\n      (se): SEModule(\n        (fc1): Conv2d(256, 16, kernel_size=(1, 1), stride=(1, 1))\n        (bn): Identity()\n        (act): ReLU(inplace=True)\n        (fc2): Conv2d(16, 256, kernel_size=(1, 1), stride=(1, 1))\n        (gate): Sigmoid()\n      )\n      (act3): ReLU(inplace=True)\n    )\n    (2): Bottleneck(\n      (conv1): Conv2d(256, 128, kernel_size=(1, 1), stride=(1, 1), bias=False)\n      (bn1): BatchNorm2d(128, eps=1e-05, momentum=0.1, affine=True, track_running_stats=True)\n      (act1): ReLU(inplace=True)\n      (conv2): Conv2d(128, 256, kernel_size=(3, 3), stride=(1, 1), padding=(1, 1), groups=64, bias=False)\n      (bn2): BatchNorm2d(256, eps=1e-05, momentum=0.1, affine=True, track_running_stats=True)\n      (drop_block): Identity()\n      (act2): ReLU(inplace=True)\n      (aa): Identity()\n      (conv3): Conv2d(256, 256, kernel_size=(1, 1), stride=(1, 1), bias=False)\n      (bn3): BatchNorm2d(256, eps=1e-05, momentum=0.1, affine=True, track_running_stats=True)\n      (se): SEModule(\n        (fc1): Conv2d(256, 16, kernel_size=(1, 1), stride=(1, 1))\n        (bn): Identity()\n        (act): ReLU(inplace=True)\n        (fc2): Conv2d(16, 256, kernel_size=(1, 1), stride=(1, 1))\n        (gate): Sigmoid()\n      )\n      (act3): ReLU(inplace=True)\n    )\n  )\n  (layer2): Sequential(\n    (0): Bottleneck(\n      (conv1): Conv2d(256, 256, kernel_size=(1, 1), stride=(1, 1), bias=False)\n      (bn1): BatchNorm2d(256, eps=1e-05, momentum=0.1, affine=True, track_running_stats=True)\n      (act1): ReLU(inplace=True)\n      (conv2): Conv2d(256, 512, kernel_size=(3, 3), stride=(2, 2), padding=(1, 1), groups=64, bias=False)\n      (bn2): BatchNorm2d(512, eps=1e-05, momentum=0.1, affine=True, track_running_stats=True)\n      (drop_block): Identity()\n      (act2): ReLU(inplace=True)\n      (aa): Identity()\n      (conv3): Conv2d(512, 512, kernel_size=(1, 1), stride=(1, 1), bias=False)\n      (bn3): BatchNorm2d(512, eps=1e-05, momentum=0.1, affine=True, track_running_stats=True)\n      (se): SEModule(\n        (fc1): Conv2d(512, 32, kernel_size=(1, 1), stride=(1, 1))\n        (bn): Identity()\n        (act): ReLU(inplace=True)\n        (fc2): Conv2d(32, 512, kernel_size=(1, 1), stride=(1, 1))\n        (gate): Sigmoid()\n      )\n      (act3): ReLU(inplace=True)\n      (downsample): Sequential(\n        (0): Conv2d(256, 512, kernel_size=(3, 3), stride=(2, 2), padding=(1, 1), bias=False)\n        (1): BatchNorm2d(512, eps=1e-05, momentum=0.1, affine=True, track_running_stats=True)\n      )\n    )\n    (1): Bottleneck(\n      (conv1): Conv2d(512, 256, kernel_size=(1, 1), stride=(1, 1), bias=False)\n      (bn1): BatchNorm2d(256, eps=1e-05, momentum=0.1, affine=True, track_running_stats=True)\n      (act1): ReLU(inplace=True)\n      (conv2): Conv2d(256, 512, kernel_size=(3, 3), stride=(1, 1), padding=(1, 1), groups=64, bias=False)\n      (bn2): BatchNorm2d(512, eps=1e-05, momentum=0.1, affine=True, track_running_stats=True)\n      (drop_block): Identity()\n      (act2): ReLU(inplace=True)\n      (aa): Identity()\n      (conv3): Conv2d(512, 512, kernel_size=(1, 1), stride=(1, 1), bias=False)\n      (bn3): BatchNorm2d(512, eps=1e-05, momentum=0.1, affine=True, track_running_stats=True)\n      (se): SEModule(\n        (fc1): Conv2d(512, 32, kernel_size=(1, 1), stride=(1, 1))\n        (bn): Identity()\n        (act): ReLU(inplace=True)\n        (fc2): Conv2d(32, 512, kernel_size=(1, 1), stride=(1, 1))\n        (gate): Sigmoid()\n      )\n      (act3): ReLU(inplace=True)\n    )\n    (2): Bottleneck(\n      (conv1): Conv2d(512, 256, kernel_size=(1, 1), stride=(1, 1), bias=False)\n      (bn1): BatchNorm2d(256, eps=1e-05, momentum=0.1, affine=True, track_running_stats=True)\n      (act1): ReLU(inplace=True)\n      (conv2): Conv2d(256, 512, kernel_size=(3, 3), stride=(1, 1), padding=(1, 1), groups=64, bias=False)\n      (bn2): BatchNorm2d(512, eps=1e-05, momentum=0.1, affine=True, track_running_stats=True)\n      (drop_block): Identity()\n      (act2): ReLU(inplace=True)\n      (aa): Identity()\n      (conv3): Conv2d(512, 512, kernel_size=(1, 1), stride=(1, 1), bias=False)\n      (bn3): BatchNorm2d(512, eps=1e-05, momentum=0.1, affine=True, track_running_stats=True)\n      (se): SEModule(\n        (fc1): Conv2d(512, 32, kernel_size=(1, 1), stride=(1, 1))\n        (bn): Identity()\n        (act): ReLU(inplace=True)\n        (fc2): Conv2d(32, 512, kernel_size=(1, 1), stride=(1, 1))\n        (gate): Sigmoid()\n      )\n      (act3): ReLU(inplace=True)\n    )\n    (3): Bottleneck(\n      (conv1): Conv2d(512, 256, kernel_size=(1, 1), stride=(1, 1), bias=False)\n      (bn1): BatchNorm2d(256, eps=1e-05, momentum=0.1, affine=True, track_running_stats=True)\n      (act1): ReLU(inplace=True)\n      (conv2): Conv2d(256, 512, kernel_size=(3, 3), stride=(1, 1), padding=(1, 1), groups=64, bias=False)\n      (bn2): BatchNorm2d(512, eps=1e-05, momentum=0.1, affine=True, track_running_stats=True)\n      (drop_block): Identity()\n      (act2): ReLU(inplace=True)\n      (aa): Identity()\n      (conv3): Conv2d(512, 512, kernel_size=(1, 1), stride=(1, 1), bias=False)\n      (bn3): BatchNorm2d(512, eps=1e-05, momentum=0.1, affine=True, track_running_stats=True)\n      (se): SEModule(\n        (fc1): Conv2d(512, 32, kernel_size=(1, 1), stride=(1, 1))\n        (bn): Identity()\n        (act): ReLU(inplace=True)\n        (fc2): Conv2d(32, 512, kernel_size=(1, 1), stride=(1, 1))\n        (gate): Sigmoid()\n      )\n      (act3): ReLU(inplace=True)\n    )\n    (4): Bottleneck(\n      (conv1): Conv2d(512, 256, kernel_size=(1, 1), stride=(1, 1), bias=False)\n      (bn1): BatchNorm2d(256, eps=1e-05, momentum=0.1, affine=True, track_running_stats=True)\n      (act1): ReLU(inplace=True)\n      (conv2): Conv2d(256, 512, kernel_size=(3, 3), stride=(1, 1), padding=(1, 1), groups=64, bias=False)\n      (bn2): BatchNorm2d(512, eps=1e-05, momentum=0.1, affine=True, track_running_stats=True)\n      (drop_block): Identity()\n      (act2): ReLU(inplace=True)\n      (aa): Identity()\n      (conv3): Conv2d(512, 512, kernel_size=(1, 1), stride=(1, 1), bias=False)\n      (bn3): BatchNorm2d(512, eps=1e-05, momentum=0.1, affine=True, track_running_stats=True)\n      (se): SEModule(\n        (fc1): Conv2d(512, 32, kernel_size=(1, 1), stride=(1, 1))\n        (bn): Identity()\n        (act): ReLU(inplace=True)\n        (fc2): Conv2d(32, 512, kernel_size=(1, 1), stride=(1, 1))\n        (gate): Sigmoid()\n      )\n      (act3): ReLU(inplace=True)\n    )\n    (5): Bottleneck(\n      (conv1): Conv2d(512, 256, kernel_size=(1, 1), stride=(1, 1), bias=False)\n      (bn1): BatchNorm2d(256, eps=1e-05, momentum=0.1, affine=True, track_running_stats=True)\n      (act1): ReLU(inplace=True)\n      (conv2): Conv2d(256, 512, kernel_size=(3, 3), stride=(1, 1), padding=(1, 1), groups=64, bias=False)\n      (bn2): BatchNorm2d(512, eps=1e-05, momentum=0.1, affine=True, track_running_stats=True)\n      (drop_block): Identity()\n      (act2): ReLU(inplace=True)\n      (aa): Identity()\n      (conv3): Conv2d(512, 512, kernel_size=(1, 1), stride=(1, 1), bias=False)\n      (bn3): BatchNorm2d(512, eps=1e-05, momentum=0.1, affine=True, track_running_stats=True)\n      (se): SEModule(\n        (fc1): Conv2d(512, 32, kernel_size=(1, 1), stride=(1, 1))\n        (bn): Identity()\n        (act): ReLU(inplace=True)\n        (fc2): Conv2d(32, 512, kernel_size=(1, 1), stride=(1, 1))\n        (gate): Sigmoid()\n      )\n      (act3): ReLU(inplace=True)\n    )\n    (6): Bottleneck(\n      (conv1): Conv2d(512, 256, kernel_size=(1, 1), stride=(1, 1), bias=False)\n      (bn1): BatchNorm2d(256, eps=1e-05, momentum=0.1, affine=True, track_running_stats=True)\n      (act1): ReLU(inplace=True)\n      (conv2): Conv2d(256, 512, kernel_size=(3, 3), stride=(1, 1), padding=(1, 1), groups=64, bias=False)\n      (bn2): BatchNorm2d(512, eps=1e-05, momentum=0.1, affine=True, track_running_stats=True)\n      (drop_block): Identity()\n      (act2): ReLU(inplace=True)\n      (aa): Identity()\n      (conv3): Conv2d(512, 512, kernel_size=(1, 1), stride=(1, 1), bias=False)\n      (bn3): BatchNorm2d(512, eps=1e-05, momentum=0.1, affine=True, track_running_stats=True)\n      (se): SEModule(\n        (fc1): Conv2d(512, 32, kernel_size=(1, 1), stride=(1, 1))\n        (bn): Identity()\n        (act): ReLU(inplace=True)\n        (fc2): Conv2d(32, 512, kernel_size=(1, 1), stride=(1, 1))\n        (gate): Sigmoid()\n      )\n      (act3): ReLU(inplace=True)\n    )\n    (7): Bottleneck(\n      (conv1): Conv2d(512, 256, kernel_size=(1, 1), stride=(1, 1), bias=False)\n      (bn1): BatchNorm2d(256, eps=1e-05, momentum=0.1, affine=True, track_running_stats=True)\n      (act1): ReLU(inplace=True)\n      (conv2): Conv2d(256, 512, kernel_size=(3, 3), stride=(1, 1), padding=(1, 1), groups=64, bias=False)\n      (bn2): BatchNorm2d(512, eps=1e-05, momentum=0.1, affine=True, track_running_stats=True)\n      (drop_block): Identity()\n      (act2): ReLU(inplace=True)\n      (aa): Identity()\n      (conv3): Conv2d(512, 512, kernel_size=(1, 1), stride=(1, 1), bias=False)\n      (bn3): BatchNorm2d(512, eps=1e-05, momentum=0.1, affine=True, track_running_stats=True)\n      (se): SEModule(\n        (fc1): Conv2d(512, 32, kernel_size=(1, 1), stride=(1, 1))\n        (bn): Identity()\n        (act): ReLU(inplace=True)\n        (fc2): Conv2d(32, 512, kernel_size=(1, 1), stride=(1, 1))\n        (gate): Sigmoid()\n      )\n      (act3): ReLU(inplace=True)\n    )\n  )\n  (layer3): Sequential(\n    (0): Bottleneck(\n      (conv1): Conv2d(512, 512, kernel_size=(1, 1), stride=(1, 1), bias=False)\n      (bn1): BatchNorm2d(512, eps=1e-05, momentum=0.1, affine=True, track_running_stats=True)\n      (act1): ReLU(inplace=True)\n      (conv2): Conv2d(512, 1024, kernel_size=(3, 3), stride=(2, 2), padding=(1, 1), groups=64, bias=False)\n      (bn2): BatchNorm2d(1024, eps=1e-05, momentum=0.1, affine=True, track_running_stats=True)\n      (drop_block): Identity()\n      (act2): ReLU(inplace=True)\n      (aa): Identity()\n      (conv3): Conv2d(1024, 1024, kernel_size=(1, 1), stride=(1, 1), bias=False)\n      (bn3): BatchNorm2d(1024, eps=1e-05, momentum=0.1, affine=True, track_running_stats=True)\n      (se): SEModule(\n        (fc1): Conv2d(1024, 64, kernel_size=(1, 1), stride=(1, 1))\n        (bn): Identity()\n        (act): ReLU(inplace=True)\n        (fc2): Conv2d(64, 1024, kernel_size=(1, 1), stride=(1, 1))\n        (gate): Sigmoid()\n      )\n      (act3): ReLU(inplace=True)\n      (downsample): Sequential(\n        (0): Conv2d(512, 1024, kernel_size=(3, 3), stride=(2, 2), padding=(1, 1), bias=False)\n        (1): BatchNorm2d(1024, eps=1e-05, momentum=0.1, affine=True, track_running_stats=True)\n      )\n    )\n    (1): Bottleneck(\n      (conv1): Conv2d(1024, 512, kernel_size=(1, 1), stride=(1, 1), bias=False)\n      (bn1): BatchNorm2d(512, eps=1e-05, momentum=0.1, affine=True, track_running_stats=True)\n      (act1): ReLU(inplace=True)\n      (conv2): Conv2d(512, 1024, kernel_size=(3, 3), stride=(1, 1), padding=(1, 1), groups=64, bias=False)\n      (bn2): BatchNorm2d(1024, eps=1e-05, momentum=0.1, affine=True, track_running_stats=True)\n      (drop_block): Identity()\n      (act2): ReLU(inplace=True)\n      (aa): Identity()\n      (conv3): Conv2d(1024, 1024, kernel_size=(1, 1), stride=(1, 1), bias=False)\n      (bn3): BatchNorm2d(1024, eps=1e-05, momentum=0.1, affine=True, track_running_stats=True)\n      (se): SEModule(\n        (fc1): Conv2d(1024, 64, kernel_size=(1, 1), stride=(1, 1))\n        (bn): Identity()\n        (act): ReLU(inplace=True)\n        (fc2): Conv2d(64, 1024, kernel_size=(1, 1), stride=(1, 1))\n        (gate): Sigmoid()\n      )\n      (act3): ReLU(inplace=True)\n    )\n    (2): Bottleneck(\n      (conv1): Conv2d(1024, 512, kernel_size=(1, 1), stride=(1, 1), bias=False)\n      (bn1): BatchNorm2d(512, eps=1e-05, momentum=0.1, affine=True, track_running_stats=True)\n      (act1): ReLU(inplace=True)\n      (conv2): Conv2d(512, 1024, kernel_size=(3, 3), stride=(1, 1), padding=(1, 1), groups=64, bias=False)\n      (bn2): BatchNorm2d(1024, eps=1e-05, momentum=0.1, affine=True, track_running_stats=True)\n      (drop_block): Identity()\n      (act2): ReLU(inplace=True)\n      (aa): Identity()\n      (conv3): Conv2d(1024, 1024, kernel_size=(1, 1), stride=(1, 1), bias=False)\n      (bn3): BatchNorm2d(1024, eps=1e-05, momentum=0.1, affine=True, track_running_stats=True)\n      (se): SEModule(\n        (fc1): Conv2d(1024, 64, kernel_size=(1, 1), stride=(1, 1))\n        (bn): Identity()\n        (act): ReLU(inplace=True)\n        (fc2): Conv2d(64, 1024, kernel_size=(1, 1), stride=(1, 1))\n        (gate): Sigmoid()\n      )\n      (act3): ReLU(inplace=True)\n    )\n    (3): Bottleneck(\n      (conv1): Conv2d(1024, 512, kernel_size=(1, 1), stride=(1, 1), bias=False)\n      (bn1): BatchNorm2d(512, eps=1e-05, momentum=0.1, affine=True, track_running_stats=True)\n      (act1): ReLU(inplace=True)\n      (conv2): Conv2d(512, 1024, kernel_size=(3, 3), stride=(1, 1), padding=(1, 1), groups=64, bias=False)\n      (bn2): BatchNorm2d(1024, eps=1e-05, momentum=0.1, affine=True, track_running_stats=True)\n      (drop_block): Identity()\n      (act2): ReLU(inplace=True)\n      (aa): Identity()\n      (conv3): Conv2d(1024, 1024, kernel_size=(1, 1), stride=(1, 1), bias=False)\n      (bn3): BatchNorm2d(1024, eps=1e-05, momentum=0.1, affine=True, track_running_stats=True)\n      (se): SEModule(\n        (fc1): Conv2d(1024, 64, kernel_size=(1, 1), stride=(1, 1))\n        (bn): Identity()\n        (act): ReLU(inplace=True)\n        (fc2): Conv2d(64, 1024, kernel_size=(1, 1), stride=(1, 1))\n        (gate): Sigmoid()\n      )\n      (act3): ReLU(inplace=True)\n    )\n    (4): Bottleneck(\n      (conv1): Conv2d(1024, 512, kernel_size=(1, 1), stride=(1, 1), bias=False)\n      (bn1): BatchNorm2d(512, eps=1e-05, momentum=0.1, affine=True, track_running_stats=True)\n      (act1): ReLU(inplace=True)\n      (conv2): Conv2d(512, 1024, kernel_size=(3, 3), stride=(1, 1), padding=(1, 1), groups=64, bias=False)\n      (bn2): BatchNorm2d(1024, eps=1e-05, momentum=0.1, affine=True, track_running_stats=True)\n      (drop_block): Identity()\n      (act2): ReLU(inplace=True)\n      (aa): Identity()\n      (conv3): Conv2d(1024, 1024, kernel_size=(1, 1), stride=(1, 1), bias=False)\n      (bn3): BatchNorm2d(1024, eps=1e-05, momentum=0.1, affine=True, track_running_stats=True)\n      (se): SEModule(\n        (fc1): Conv2d(1024, 64, kernel_size=(1, 1), stride=(1, 1))\n        (bn): Identity()\n        (act): ReLU(inplace=True)\n        (fc2): Conv2d(64, 1024, kernel_size=(1, 1), stride=(1, 1))\n        (gate): Sigmoid()\n      )\n      (act3): ReLU(inplace=True)\n    )\n    (5): Bottleneck(\n      (conv1): Conv2d(1024, 512, kernel_size=(1, 1), stride=(1, 1), bias=False)\n      (bn1): BatchNorm2d(512, eps=1e-05, momentum=0.1, affine=True, track_running_stats=True)\n      (act1): ReLU(inplace=True)\n      (conv2): Conv2d(512, 1024, kernel_size=(3, 3), stride=(1, 1), padding=(1, 1), groups=64, bias=False)\n      (bn2): BatchNorm2d(1024, eps=1e-05, momentum=0.1, affine=True, track_running_stats=True)\n      (drop_block): Identity()\n      (act2): ReLU(inplace=True)\n      (aa): Identity()\n      (conv3): Conv2d(1024, 1024, kernel_size=(1, 1), stride=(1, 1), bias=False)\n      (bn3): BatchNorm2d(1024, eps=1e-05, momentum=0.1, affine=True, track_running_stats=True)\n      (se): SEModule(\n        (fc1): Conv2d(1024, 64, kernel_size=(1, 1), stride=(1, 1))\n        (bn): Identity()\n        (act): ReLU(inplace=True)\n        (fc2): Conv2d(64, 1024, kernel_size=(1, 1), stride=(1, 1))\n        (gate): Sigmoid()\n      )\n      (act3): ReLU(inplace=True)\n    )\n    (6): Bottleneck(\n      (conv1): Conv2d(1024, 512, kernel_size=(1, 1), stride=(1, 1), bias=False)\n      (bn1): BatchNorm2d(512, eps=1e-05, momentum=0.1, affine=True, track_running_stats=True)\n      (act1): ReLU(inplace=True)\n      (conv2): Conv2d(512, 1024, kernel_size=(3, 3), stride=(1, 1), padding=(1, 1), groups=64, bias=False)\n      (bn2): BatchNorm2d(1024, eps=1e-05, momentum=0.1, affine=True, track_running_stats=True)\n      (drop_block): Identity()\n      (act2): ReLU(inplace=True)\n      (aa): Identity()\n      (conv3): Conv2d(1024, 1024, kernel_size=(1, 1), stride=(1, 1), bias=False)\n      (bn3): BatchNorm2d(1024, eps=1e-05, momentum=0.1, affine=True, track_running_stats=True)\n      (se): SEModule(\n        (fc1): Conv2d(1024, 64, kernel_size=(1, 1), stride=(1, 1))\n        (bn): Identity()\n        (act): ReLU(inplace=True)\n        (fc2): Conv2d(64, 1024, kernel_size=(1, 1), stride=(1, 1))\n        (gate): Sigmoid()\n      )\n      (act3): ReLU(inplace=True)\n    )\n    (7): Bottleneck(\n      (conv1): Conv2d(1024, 512, kernel_size=(1, 1), stride=(1, 1), bias=False)\n      (bn1): BatchNorm2d(512, eps=1e-05, momentum=0.1, affine=True, track_running_stats=True)\n      (act1): ReLU(inplace=True)\n      (conv2): Conv2d(512, 1024, kernel_size=(3, 3), stride=(1, 1), padding=(1, 1), groups=64, bias=False)\n      (bn2): BatchNorm2d(1024, eps=1e-05, momentum=0.1, affine=True, track_running_stats=True)\n      (drop_block): Identity()\n      (act2): ReLU(inplace=True)\n      (aa): Identity()\n      (conv3): Conv2d(1024, 1024, kernel_size=(1, 1), stride=(1, 1), bias=False)\n      (bn3): BatchNorm2d(1024, eps=1e-05, momentum=0.1, affine=True, track_running_stats=True)\n      (se): SEModule(\n        (fc1): Conv2d(1024, 64, kernel_size=(1, 1), stride=(1, 1))\n        (bn): Identity()\n        (act): ReLU(inplace=True)\n        (fc2): Conv2d(64, 1024, kernel_size=(1, 1), stride=(1, 1))\n        (gate): Sigmoid()\n      )\n      (act3): ReLU(inplace=True)\n    )\n    (8): Bottleneck(\n      (conv1): Conv2d(1024, 512, kernel_size=(1, 1), stride=(1, 1), bias=False)\n      (bn1): BatchNorm2d(512, eps=1e-05, momentum=0.1, affine=True, track_running_stats=True)\n      (act1): ReLU(inplace=True)\n      (conv2): Conv2d(512, 1024, kernel_size=(3, 3), stride=(1, 1), padding=(1, 1), groups=64, bias=False)\n      (bn2): BatchNorm2d(1024, eps=1e-05, momentum=0.1, affine=True, track_running_stats=True)\n      (drop_block): Identity()\n      (act2): ReLU(inplace=True)\n      (aa): Identity()\n      (conv3): Conv2d(1024, 1024, kernel_size=(1, 1), stride=(1, 1), bias=False)\n      (bn3): BatchNorm2d(1024, eps=1e-05, momentum=0.1, affine=True, track_running_stats=True)\n      (se): SEModule(\n        (fc1): Conv2d(1024, 64, kernel_size=(1, 1), stride=(1, 1))\n        (bn): Identity()\n        (act): ReLU(inplace=True)\n        (fc2): Conv2d(64, 1024, kernel_size=(1, 1), stride=(1, 1))\n        (gate): Sigmoid()\n      )\n      (act3): ReLU(inplace=True)\n    )\n    (9): Bottleneck(\n      (conv1): Conv2d(1024, 512, kernel_size=(1, 1), stride=(1, 1), bias=False)\n      (bn1): BatchNorm2d(512, eps=1e-05, momentum=0.1, affine=True, track_running_stats=True)\n      (act1): ReLU(inplace=True)\n      (conv2): Conv2d(512, 1024, kernel_size=(3, 3), stride=(1, 1), padding=(1, 1), groups=64, bias=False)\n      (bn2): BatchNorm2d(1024, eps=1e-05, momentum=0.1, affine=True, track_running_stats=True)\n      (drop_block): Identity()\n      (act2): ReLU(inplace=True)\n      (aa): Identity()\n      (conv3): Conv2d(1024, 1024, kernel_size=(1, 1), stride=(1, 1), bias=False)\n      (bn3): BatchNorm2d(1024, eps=1e-05, momentum=0.1, affine=True, track_running_stats=True)\n      (se): SEModule(\n        (fc1): Conv2d(1024, 64, kernel_size=(1, 1), stride=(1, 1))\n        (bn): Identity()\n        (act): ReLU(inplace=True)\n        (fc2): Conv2d(64, 1024, kernel_size=(1, 1), stride=(1, 1))\n        (gate): Sigmoid()\n      )\n      (act3): ReLU(inplace=True)\n    )\n    (10): Bottleneck(\n      (conv1): Conv2d(1024, 512, kernel_size=(1, 1), stride=(1, 1), bias=False)\n      (bn1): BatchNorm2d(512, eps=1e-05, momentum=0.1, affine=True, track_running_stats=True)\n      (act1): ReLU(inplace=True)\n      (conv2): Conv2d(512, 1024, kernel_size=(3, 3), stride=(1, 1), padding=(1, 1), groups=64, bias=False)\n      (bn2): BatchNorm2d(1024, eps=1e-05, momentum=0.1, affine=True, track_running_stats=True)\n      (drop_block): Identity()\n      (act2): ReLU(inplace=True)\n      (aa): Identity()\n      (conv3): Conv2d(1024, 1024, kernel_size=(1, 1), stride=(1, 1), bias=False)\n      (bn3): BatchNorm2d(1024, eps=1e-05, momentum=0.1, affine=True, track_running_stats=True)\n      (se): SEModule(\n        (fc1): Conv2d(1024, 64, kernel_size=(1, 1), stride=(1, 1))\n        (bn): Identity()\n        (act): ReLU(inplace=True)\n        (fc2): Conv2d(64, 1024, kernel_size=(1, 1), stride=(1, 1))\n        (gate): Sigmoid()\n      )\n      (act3): ReLU(inplace=True)\n    )\n    (11): Bottleneck(\n      (conv1): Conv2d(1024, 512, kernel_size=(1, 1), stride=(1, 1), bias=False)\n      (bn1): BatchNorm2d(512, eps=1e-05, momentum=0.1, affine=True, track_running_stats=True)\n      (act1): ReLU(inplace=True)\n      (conv2): Conv2d(512, 1024, kernel_size=(3, 3), stride=(1, 1), padding=(1, 1), groups=64, bias=False)\n      (bn2): BatchNorm2d(1024, eps=1e-05, momentum=0.1, affine=True, track_running_stats=True)\n      (drop_block): Identity()\n      (act2): ReLU(inplace=True)\n      (aa): Identity()\n      (conv3): Conv2d(1024, 1024, kernel_size=(1, 1), stride=(1, 1), bias=False)\n      (bn3): BatchNorm2d(1024, eps=1e-05, momentum=0.1, affine=True, track_running_stats=True)\n      (se): SEModule(\n        (fc1): Conv2d(1024, 64, kernel_size=(1, 1), stride=(1, 1))\n        (bn): Identity()\n        (act): ReLU(inplace=True)\n        (fc2): Conv2d(64, 1024, kernel_size=(1, 1), stride=(1, 1))\n        (gate): Sigmoid()\n      )\n      (act3): ReLU(inplace=True)\n    )\n    (12): Bottleneck(\n      (conv1): Conv2d(1024, 512, kernel_size=(1, 1), stride=(1, 1), bias=False)\n      (bn1): BatchNorm2d(512, eps=1e-05, momentum=0.1, affine=True, track_running_stats=True)\n      (act1): ReLU(inplace=True)\n      (conv2): Conv2d(512, 1024, kernel_size=(3, 3), stride=(1, 1), padding=(1, 1), groups=64, bias=False)\n      (bn2): BatchNorm2d(1024, eps=1e-05, momentum=0.1, affine=True, track_running_stats=True)\n      (drop_block): Identity()\n      (act2): ReLU(inplace=True)\n      (aa): Identity()\n      (conv3): Conv2d(1024, 1024, kernel_size=(1, 1), stride=(1, 1), bias=False)\n      (bn3): BatchNorm2d(1024, eps=1e-05, momentum=0.1, affine=True, track_running_stats=True)\n      (se): SEModule(\n        (fc1): Conv2d(1024, 64, kernel_size=(1, 1), stride=(1, 1))\n        (bn): Identity()\n        (act): ReLU(inplace=True)\n        (fc2): Conv2d(64, 1024, kernel_size=(1, 1), stride=(1, 1))\n        (gate): Sigmoid()\n      )\n      (act3): ReLU(inplace=True)\n    )\n    (13): Bottleneck(\n      (conv1): Conv2d(1024, 512, kernel_size=(1, 1), stride=(1, 1), bias=False)\n      (bn1): BatchNorm2d(512, eps=1e-05, momentum=0.1, affine=True, track_running_stats=True)\n      (act1): ReLU(inplace=True)\n      (conv2): Conv2d(512, 1024, kernel_size=(3, 3), stride=(1, 1), padding=(1, 1), groups=64, bias=False)\n      (bn2): BatchNorm2d(1024, eps=1e-05, momentum=0.1, affine=True, track_running_stats=True)\n      (drop_block): Identity()\n      (act2): ReLU(inplace=True)\n      (aa): Identity()\n      (conv3): Conv2d(1024, 1024, kernel_size=(1, 1), stride=(1, 1), bias=False)\n      (bn3): BatchNorm2d(1024, eps=1e-05, momentum=0.1, affine=True, track_running_stats=True)\n      (se): SEModule(\n        (fc1): Conv2d(1024, 64, kernel_size=(1, 1), stride=(1, 1))\n        (bn): Identity()\n        (act): ReLU(inplace=True)\n        (fc2): Conv2d(64, 1024, kernel_size=(1, 1), stride=(1, 1))\n        (gate): Sigmoid()\n      )\n      (act3): ReLU(inplace=True)\n    )\n    (14): Bottleneck(\n      (conv1): Conv2d(1024, 512, kernel_size=(1, 1), stride=(1, 1), bias=False)\n      (bn1): BatchNorm2d(512, eps=1e-05, momentum=0.1, affine=True, track_running_stats=True)\n      (act1): ReLU(inplace=True)\n      (conv2): Conv2d(512, 1024, kernel_size=(3, 3), stride=(1, 1), padding=(1, 1), groups=64, bias=False)\n      (bn2): BatchNorm2d(1024, eps=1e-05, momentum=0.1, affine=True, track_running_stats=True)\n      (drop_block): Identity()\n      (act2): ReLU(inplace=True)\n      (aa): Identity()\n      (conv3): Conv2d(1024, 1024, kernel_size=(1, 1), stride=(1, 1), bias=False)\n      (bn3): BatchNorm2d(1024, eps=1e-05, momentum=0.1, affine=True, track_running_stats=True)\n      (se): SEModule(\n        (fc1): Conv2d(1024, 64, kernel_size=(1, 1), stride=(1, 1))\n        (bn): Identity()\n        (act): ReLU(inplace=True)\n        (fc2): Conv2d(64, 1024, kernel_size=(1, 1), stride=(1, 1))\n        (gate): Sigmoid()\n      )\n      (act3): ReLU(inplace=True)\n    )\n    (15): Bottleneck(\n      (conv1): Conv2d(1024, 512, kernel_size=(1, 1), stride=(1, 1), bias=False)\n      (bn1): BatchNorm2d(512, eps=1e-05, momentum=0.1, affine=True, track_running_stats=True)\n      (act1): ReLU(inplace=True)\n      (conv2): Conv2d(512, 1024, kernel_size=(3, 3), stride=(1, 1), padding=(1, 1), groups=64, bias=False)\n      (bn2): BatchNorm2d(1024, eps=1e-05, momentum=0.1, affine=True, track_running_stats=True)\n      (drop_block): Identity()\n      (act2): ReLU(inplace=True)\n      (aa): Identity()\n      (conv3): Conv2d(1024, 1024, kernel_size=(1, 1), stride=(1, 1), bias=False)\n      (bn3): BatchNorm2d(1024, eps=1e-05, momentum=0.1, affine=True, track_running_stats=True)\n      (se): SEModule(\n        (fc1): Conv2d(1024, 64, kernel_size=(1, 1), stride=(1, 1))\n        (bn): Identity()\n        (act): ReLU(inplace=True)\n        (fc2): Conv2d(64, 1024, kernel_size=(1, 1), stride=(1, 1))\n        (gate): Sigmoid()\n      )\n      (act3): ReLU(inplace=True)\n    )\n    (16): Bottleneck(\n      (conv1): Conv2d(1024, 512, kernel_size=(1, 1), stride=(1, 1), bias=False)\n      (bn1): BatchNorm2d(512, eps=1e-05, momentum=0.1, affine=True, track_running_stats=True)\n      (act1): ReLU(inplace=True)\n      (conv2): Conv2d(512, 1024, kernel_size=(3, 3), stride=(1, 1), padding=(1, 1), groups=64, bias=False)\n      (bn2): BatchNorm2d(1024, eps=1e-05, momentum=0.1, affine=True, track_running_stats=True)\n      (drop_block): Identity()\n      (act2): ReLU(inplace=True)\n      (aa): Identity()\n      (conv3): Conv2d(1024, 1024, kernel_size=(1, 1), stride=(1, 1), bias=False)\n      (bn3): BatchNorm2d(1024, eps=1e-05, momentum=0.1, affine=True, track_running_stats=True)\n      (se): SEModule(\n        (fc1): Conv2d(1024, 64, kernel_size=(1, 1), stride=(1, 1))\n        (bn): Identity()\n        (act): ReLU(inplace=True)\n        (fc2): Conv2d(64, 1024, kernel_size=(1, 1), stride=(1, 1))\n        (gate): Sigmoid()\n      )\n      (act3): ReLU(inplace=True)\n    )\n    (17): Bottleneck(\n      (conv1): Conv2d(1024, 512, kernel_size=(1, 1), stride=(1, 1), bias=False)\n      (bn1): BatchNorm2d(512, eps=1e-05, momentum=0.1, affine=True, track_running_stats=True)\n      (act1): ReLU(inplace=True)\n      (conv2): Conv2d(512, 1024, kernel_size=(3, 3), stride=(1, 1), padding=(1, 1), groups=64, bias=False)\n      (bn2): BatchNorm2d(1024, eps=1e-05, momentum=0.1, affine=True, track_running_stats=True)\n      (drop_block): Identity()\n      (act2): ReLU(inplace=True)\n      (aa): Identity()\n      (conv3): Conv2d(1024, 1024, kernel_size=(1, 1), stride=(1, 1), bias=False)\n      (bn3): BatchNorm2d(1024, eps=1e-05, momentum=0.1, affine=True, track_running_stats=True)\n      (se): SEModule(\n        (fc1): Conv2d(1024, 64, kernel_size=(1, 1), stride=(1, 1))\n        (bn): Identity()\n        (act): ReLU(inplace=True)\n        (fc2): Conv2d(64, 1024, kernel_size=(1, 1), stride=(1, 1))\n        (gate): Sigmoid()\n      )\n      (act3): ReLU(inplace=True)\n    )\n    (18): Bottleneck(\n      (conv1): Conv2d(1024, 512, kernel_size=(1, 1), stride=(1, 1), bias=False)\n      (bn1): BatchNorm2d(512, eps=1e-05, momentum=0.1, affine=True, track_running_stats=True)\n      (act1): ReLU(inplace=True)\n      (conv2): Conv2d(512, 1024, kernel_size=(3, 3), stride=(1, 1), padding=(1, 1), groups=64, bias=False)\n      (bn2): BatchNorm2d(1024, eps=1e-05, momentum=0.1, affine=True, track_running_stats=True)\n      (drop_block): Identity()\n      (act2): ReLU(inplace=True)\n      (aa): Identity()\n      (conv3): Conv2d(1024, 1024, kernel_size=(1, 1), stride=(1, 1), bias=False)\n      (bn3): BatchNorm2d(1024, eps=1e-05, momentum=0.1, affine=True, track_running_stats=True)\n      (se): SEModule(\n        (fc1): Conv2d(1024, 64, kernel_size=(1, 1), stride=(1, 1))\n        (bn): Identity()\n        (act): ReLU(inplace=True)\n        (fc2): Conv2d(64, 1024, kernel_size=(1, 1), stride=(1, 1))\n        (gate): Sigmoid()\n      )\n      (act3): ReLU(inplace=True)\n    )\n    (19): Bottleneck(\n      (conv1): Conv2d(1024, 512, kernel_size=(1, 1), stride=(1, 1), bias=False)\n      (bn1): BatchNorm2d(512, eps=1e-05, momentum=0.1, affine=True, track_running_stats=True)\n      (act1): ReLU(inplace=True)\n      (conv2): Conv2d(512, 1024, kernel_size=(3, 3), stride=(1, 1), padding=(1, 1), groups=64, bias=False)\n      (bn2): BatchNorm2d(1024, eps=1e-05, momentum=0.1, affine=True, track_running_stats=True)\n      (drop_block): Identity()\n      (act2): ReLU(inplace=True)\n      (aa): Identity()\n      (conv3): Conv2d(1024, 1024, kernel_size=(1, 1), stride=(1, 1), bias=False)\n      (bn3): BatchNorm2d(1024, eps=1e-05, momentum=0.1, affine=True, track_running_stats=True)\n      (se): SEModule(\n        (fc1): Conv2d(1024, 64, kernel_size=(1, 1), stride=(1, 1))\n        (bn): Identity()\n        (act): ReLU(inplace=True)\n        (fc2): Conv2d(64, 1024, kernel_size=(1, 1), stride=(1, 1))\n        (gate): Sigmoid()\n      )\n      (act3): ReLU(inplace=True)\n    )\n    (20): Bottleneck(\n      (conv1): Conv2d(1024, 512, kernel_size=(1, 1), stride=(1, 1), bias=False)\n      (bn1): BatchNorm2d(512, eps=1e-05, momentum=0.1, affine=True, track_running_stats=True)\n      (act1): ReLU(inplace=True)\n      (conv2): Conv2d(512, 1024, kernel_size=(3, 3), stride=(1, 1), padding=(1, 1), groups=64, bias=False)\n      (bn2): BatchNorm2d(1024, eps=1e-05, momentum=0.1, affine=True, track_running_stats=True)\n      (drop_block): Identity()\n      (act2): ReLU(inplace=True)\n      (aa): Identity()\n      (conv3): Conv2d(1024, 1024, kernel_size=(1, 1), stride=(1, 1), bias=False)\n      (bn3): BatchNorm2d(1024, eps=1e-05, momentum=0.1, affine=True, track_running_stats=True)\n      (se): SEModule(\n        (fc1): Conv2d(1024, 64, kernel_size=(1, 1), stride=(1, 1))\n        (bn): Identity()\n        (act): ReLU(inplace=True)\n        (fc2): Conv2d(64, 1024, kernel_size=(1, 1), stride=(1, 1))\n        (gate): Sigmoid()\n      )\n      (act3): ReLU(inplace=True)\n    )\n    (21): Bottleneck(\n      (conv1): Conv2d(1024, 512, kernel_size=(1, 1), stride=(1, 1), bias=False)\n      (bn1): BatchNorm2d(512, eps=1e-05, momentum=0.1, affine=True, track_running_stats=True)\n      (act1): ReLU(inplace=True)\n      (conv2): Conv2d(512, 1024, kernel_size=(3, 3), stride=(1, 1), padding=(1, 1), groups=64, bias=False)\n      (bn2): BatchNorm2d(1024, eps=1e-05, momentum=0.1, affine=True, track_running_stats=True)\n      (drop_block): Identity()\n      (act2): ReLU(inplace=True)\n      (aa): Identity()\n      (conv3): Conv2d(1024, 1024, kernel_size=(1, 1), stride=(1, 1), bias=False)\n      (bn3): BatchNorm2d(1024, eps=1e-05, momentum=0.1, affine=True, track_running_stats=True)\n      (se): SEModule(\n        (fc1): Conv2d(1024, 64, kernel_size=(1, 1), stride=(1, 1))\n        (bn): Identity()\n        (act): ReLU(inplace=True)\n        (fc2): Conv2d(64, 1024, kernel_size=(1, 1), stride=(1, 1))\n        (gate): Sigmoid()\n      )\n      (act3): ReLU(inplace=True)\n    )\n    (22): Bottleneck(\n      (conv1): Conv2d(1024, 512, kernel_size=(1, 1), stride=(1, 1), bias=False)\n      (bn1): BatchNorm2d(512, eps=1e-05, momentum=0.1, affine=True, track_running_stats=True)\n      (act1): ReLU(inplace=True)\n      (conv2): Conv2d(512, 1024, kernel_size=(3, 3), stride=(1, 1), padding=(1, 1), groups=64, bias=False)\n      (bn2): BatchNorm2d(1024, eps=1e-05, momentum=0.1, affine=True, track_running_stats=True)\n      (drop_block): Identity()\n      (act2): ReLU(inplace=True)\n      (aa): Identity()\n      (conv3): Conv2d(1024, 1024, kernel_size=(1, 1), stride=(1, 1), bias=False)\n      (bn3): BatchNorm2d(1024, eps=1e-05, momentum=0.1, affine=True, track_running_stats=True)\n      (se): SEModule(\n        (fc1): Conv2d(1024, 64, kernel_size=(1, 1), stride=(1, 1))\n        (bn): Identity()\n        (act): ReLU(inplace=True)\n        (fc2): Conv2d(64, 1024, kernel_size=(1, 1), stride=(1, 1))\n        (gate): Sigmoid()\n      )\n      (act3): ReLU(inplace=True)\n    )\n    (23): Bottleneck(\n      (conv1): Conv2d(1024, 512, kernel_size=(1, 1), stride=(1, 1), bias=False)\n      (bn1): BatchNorm2d(512, eps=1e-05, momentum=0.1, affine=True, track_running_stats=True)\n      (act1): ReLU(inplace=True)\n      (conv2): Conv2d(512, 1024, kernel_size=(3, 3), stride=(1, 1), padding=(1, 1), groups=64, bias=False)\n      (bn2): BatchNorm2d(1024, eps=1e-05, momentum=0.1, affine=True, track_running_stats=True)\n      (drop_block): Identity()\n      (act2): ReLU(inplace=True)\n      (aa): Identity()\n      (conv3): Conv2d(1024, 1024, kernel_size=(1, 1), stride=(1, 1), bias=False)\n      (bn3): BatchNorm2d(1024, eps=1e-05, momentum=0.1, affine=True, track_running_stats=True)\n      (se): SEModule(\n        (fc1): Conv2d(1024, 64, kernel_size=(1, 1), stride=(1, 1))\n        (bn): Identity()\n        (act): ReLU(inplace=True)\n        (fc2): Conv2d(64, 1024, kernel_size=(1, 1), stride=(1, 1))\n        (gate): Sigmoid()\n      )\n      (act3): ReLU(inplace=True)\n    )\n    (24): Bottleneck(\n      (conv1): Conv2d(1024, 512, kernel_size=(1, 1), stride=(1, 1), bias=False)\n      (bn1): BatchNorm2d(512, eps=1e-05, momentum=0.1, affine=True, track_running_stats=True)\n      (act1): ReLU(inplace=True)\n      (conv2): Conv2d(512, 1024, kernel_size=(3, 3), stride=(1, 1), padding=(1, 1), groups=64, bias=False)\n      (bn2): BatchNorm2d(1024, eps=1e-05, momentum=0.1, affine=True, track_running_stats=True)\n      (drop_block): Identity()\n      (act2): ReLU(inplace=True)\n      (aa): Identity()\n      (conv3): Conv2d(1024, 1024, kernel_size=(1, 1), stride=(1, 1), bias=False)\n      (bn3): BatchNorm2d(1024, eps=1e-05, momentum=0.1, affine=True, track_running_stats=True)\n      (se): SEModule(\n        (fc1): Conv2d(1024, 64, kernel_size=(1, 1), stride=(1, 1))\n        (bn): Identity()\n        (act): ReLU(inplace=True)\n        (fc2): Conv2d(64, 1024, kernel_size=(1, 1), stride=(1, 1))\n        (gate): Sigmoid()\n      )\n      (act3): ReLU(inplace=True)\n    )\n    (25): Bottleneck(\n      (conv1): Conv2d(1024, 512, kernel_size=(1, 1), stride=(1, 1), bias=False)\n      (bn1): BatchNorm2d(512, eps=1e-05, momentum=0.1, affine=True, track_running_stats=True)\n      (act1): ReLU(inplace=True)\n      (conv2): Conv2d(512, 1024, kernel_size=(3, 3), stride=(1, 1), padding=(1, 1), groups=64, bias=False)\n      (bn2): BatchNorm2d(1024, eps=1e-05, momentum=0.1, affine=True, track_running_stats=True)\n      (drop_block): Identity()\n      (act2): ReLU(inplace=True)\n      (aa): Identity()\n      (conv3): Conv2d(1024, 1024, kernel_size=(1, 1), stride=(1, 1), bias=False)\n      (bn3): BatchNorm2d(1024, eps=1e-05, momentum=0.1, affine=True, track_running_stats=True)\n      (se): SEModule(\n        (fc1): Conv2d(1024, 64, kernel_size=(1, 1), stride=(1, 1))\n        (bn): Identity()\n        (act): ReLU(inplace=True)\n        (fc2): Conv2d(64, 1024, kernel_size=(1, 1), stride=(1, 1))\n        (gate): Sigmoid()\n      )\n      (act3): ReLU(inplace=True)\n    )\n    (26): Bottleneck(\n      (conv1): Conv2d(1024, 512, kernel_size=(1, 1), stride=(1, 1), bias=False)\n      (bn1): BatchNorm2d(512, eps=1e-05, momentum=0.1, affine=True, track_running_stats=True)\n      (act1): ReLU(inplace=True)\n      (conv2): Conv2d(512, 1024, kernel_size=(3, 3), stride=(1, 1), padding=(1, 1), groups=64, bias=False)\n      (bn2): BatchNorm2d(1024, eps=1e-05, momentum=0.1, affine=True, track_running_stats=True)\n      (drop_block): Identity()\n      (act2): ReLU(inplace=True)\n      (aa): Identity()\n      (conv3): Conv2d(1024, 1024, kernel_size=(1, 1), stride=(1, 1), bias=False)\n      (bn3): BatchNorm2d(1024, eps=1e-05, momentum=0.1, affine=True, track_running_stats=True)\n      (se): SEModule(\n        (fc1): Conv2d(1024, 64, kernel_size=(1, 1), stride=(1, 1))\n        (bn): Identity()\n        (act): ReLU(inplace=True)\n        (fc2): Conv2d(64, 1024, kernel_size=(1, 1), stride=(1, 1))\n        (gate): Sigmoid()\n      )\n      (act3): ReLU(inplace=True)\n    )\n    (27): Bottleneck(\n      (conv1): Conv2d(1024, 512, kernel_size=(1, 1), stride=(1, 1), bias=False)\n      (bn1): BatchNorm2d(512, eps=1e-05, momentum=0.1, affine=True, track_running_stats=True)\n      (act1): ReLU(inplace=True)\n      (conv2): Conv2d(512, 1024, kernel_size=(3, 3), stride=(1, 1), padding=(1, 1), groups=64, bias=False)\n      (bn2): BatchNorm2d(1024, eps=1e-05, momentum=0.1, affine=True, track_running_stats=True)\n      (drop_block): Identity()\n      (act2): ReLU(inplace=True)\n      (aa): Identity()\n      (conv3): Conv2d(1024, 1024, kernel_size=(1, 1), stride=(1, 1), bias=False)\n      (bn3): BatchNorm2d(1024, eps=1e-05, momentum=0.1, affine=True, track_running_stats=True)\n      (se): SEModule(\n        (fc1): Conv2d(1024, 64, kernel_size=(1, 1), stride=(1, 1))\n        (bn): Identity()\n        (act): ReLU(inplace=True)\n        (fc2): Conv2d(64, 1024, kernel_size=(1, 1), stride=(1, 1))\n        (gate): Sigmoid()\n      )\n      (act3): ReLU(inplace=True)\n    )\n    (28): Bottleneck(\n      (conv1): Conv2d(1024, 512, kernel_size=(1, 1), stride=(1, 1), bias=False)\n      (bn1): BatchNorm2d(512, eps=1e-05, momentum=0.1, affine=True, track_running_stats=True)\n      (act1): ReLU(inplace=True)\n      (conv2): Conv2d(512, 1024, kernel_size=(3, 3), stride=(1, 1), padding=(1, 1), groups=64, bias=False)\n      (bn2): BatchNorm2d(1024, eps=1e-05, momentum=0.1, affine=True, track_running_stats=True)\n      (drop_block): Identity()\n      (act2): ReLU(inplace=True)\n      (aa): Identity()\n      (conv3): Conv2d(1024, 1024, kernel_size=(1, 1), stride=(1, 1), bias=False)\n      (bn3): BatchNorm2d(1024, eps=1e-05, momentum=0.1, affine=True, track_running_stats=True)\n      (se): SEModule(\n        (fc1): Conv2d(1024, 64, kernel_size=(1, 1), stride=(1, 1))\n        (bn): Identity()\n        (act): ReLU(inplace=True)\n        (fc2): Conv2d(64, 1024, kernel_size=(1, 1), stride=(1, 1))\n        (gate): Sigmoid()\n      )\n      (act3): ReLU(inplace=True)\n    )\n    (29): Bottleneck(\n      (conv1): Conv2d(1024, 512, kernel_size=(1, 1), stride=(1, 1), bias=False)\n      (bn1): BatchNorm2d(512, eps=1e-05, momentum=0.1, affine=True, track_running_stats=True)\n      (act1): ReLU(inplace=True)\n      (conv2): Conv2d(512, 1024, kernel_size=(3, 3), stride=(1, 1), padding=(1, 1), groups=64, bias=False)\n      (bn2): BatchNorm2d(1024, eps=1e-05, momentum=0.1, affine=True, track_running_stats=True)\n      (drop_block): Identity()\n      (act2): ReLU(inplace=True)\n      (aa): Identity()\n      (conv3): Conv2d(1024, 1024, kernel_size=(1, 1), stride=(1, 1), bias=False)\n      (bn3): BatchNorm2d(1024, eps=1e-05, momentum=0.1, affine=True, track_running_stats=True)\n      (se): SEModule(\n        (fc1): Conv2d(1024, 64, kernel_size=(1, 1), stride=(1, 1))\n        (bn): Identity()\n        (act): ReLU(inplace=True)\n        (fc2): Conv2d(64, 1024, kernel_size=(1, 1), stride=(1, 1))\n        (gate): Sigmoid()\n      )\n      (act3): ReLU(inplace=True)\n    )\n    (30): Bottleneck(\n      (conv1): Conv2d(1024, 512, kernel_size=(1, 1), stride=(1, 1), bias=False)\n      (bn1): BatchNorm2d(512, eps=1e-05, momentum=0.1, affine=True, track_running_stats=True)\n      (act1): ReLU(inplace=True)\n      (conv2): Conv2d(512, 1024, kernel_size=(3, 3), stride=(1, 1), padding=(1, 1), groups=64, bias=False)\n      (bn2): BatchNorm2d(1024, eps=1e-05, momentum=0.1, affine=True, track_running_stats=True)\n      (drop_block): Identity()\n      (act2): ReLU(inplace=True)\n      (aa): Identity()\n      (conv3): Conv2d(1024, 1024, kernel_size=(1, 1), stride=(1, 1), bias=False)\n      (bn3): BatchNorm2d(1024, eps=1e-05, momentum=0.1, affine=True, track_running_stats=True)\n      (se): SEModule(\n        (fc1): Conv2d(1024, 64, kernel_size=(1, 1), stride=(1, 1))\n        (bn): Identity()\n        (act): ReLU(inplace=True)\n        (fc2): Conv2d(64, 1024, kernel_size=(1, 1), stride=(1, 1))\n        (gate): Sigmoid()\n      )\n      (act3): ReLU(inplace=True)\n    )\n    (31): Bottleneck(\n      (conv1): Conv2d(1024, 512, kernel_size=(1, 1), stride=(1, 1), bias=False)\n      (bn1): BatchNorm2d(512, eps=1e-05, momentum=0.1, affine=True, track_running_stats=True)\n      (act1): ReLU(inplace=True)\n      (conv2): Conv2d(512, 1024, kernel_size=(3, 3), stride=(1, 1), padding=(1, 1), groups=64, bias=False)\n      (bn2): BatchNorm2d(1024, eps=1e-05, momentum=0.1, affine=True, track_running_stats=True)\n      (drop_block): Identity()\n      (act2): ReLU(inplace=True)\n      (aa): Identity()\n      (conv3): Conv2d(1024, 1024, kernel_size=(1, 1), stride=(1, 1), bias=False)\n      (bn3): BatchNorm2d(1024, eps=1e-05, momentum=0.1, affine=True, track_running_stats=True)\n      (se): SEModule(\n        (fc1): Conv2d(1024, 64, kernel_size=(1, 1), stride=(1, 1))\n        (bn): Identity()\n        (act): ReLU(inplace=True)\n        (fc2): Conv2d(64, 1024, kernel_size=(1, 1), stride=(1, 1))\n        (gate): Sigmoid()\n      )\n      (act3): ReLU(inplace=True)\n    )\n    (32): Bottleneck(\n      (conv1): Conv2d(1024, 512, kernel_size=(1, 1), stride=(1, 1), bias=False)\n      (bn1): BatchNorm2d(512, eps=1e-05, momentum=0.1, affine=True, track_running_stats=True)\n      (act1): ReLU(inplace=True)\n      (conv2): Conv2d(512, 1024, kernel_size=(3, 3), stride=(1, 1), padding=(1, 1), groups=64, bias=False)\n      (bn2): BatchNorm2d(1024, eps=1e-05, momentum=0.1, affine=True, track_running_stats=True)\n      (drop_block): Identity()\n      (act2): ReLU(inplace=True)\n      (aa): Identity()\n      (conv3): Conv2d(1024, 1024, kernel_size=(1, 1), stride=(1, 1), bias=False)\n      (bn3): BatchNorm2d(1024, eps=1e-05, momentum=0.1, affine=True, track_running_stats=True)\n      (se): SEModule(\n        (fc1): Conv2d(1024, 64, kernel_size=(1, 1), stride=(1, 1))\n        (bn): Identity()\n        (act): ReLU(inplace=True)\n        (fc2): Conv2d(64, 1024, kernel_size=(1, 1), stride=(1, 1))\n        (gate): Sigmoid()\n      )\n      (act3): ReLU(inplace=True)\n    )\n    (33): Bottleneck(\n      (conv1): Conv2d(1024, 512, kernel_size=(1, 1), stride=(1, 1), bias=False)\n      (bn1): BatchNorm2d(512, eps=1e-05, momentum=0.1, affine=True, track_running_stats=True)\n      (act1): ReLU(inplace=True)\n      (conv2): Conv2d(512, 1024, kernel_size=(3, 3), stride=(1, 1), padding=(1, 1), groups=64, bias=False)\n      (bn2): BatchNorm2d(1024, eps=1e-05, momentum=0.1, affine=True, track_running_stats=True)\n      (drop_block): Identity()\n      (act2): ReLU(inplace=True)\n      (aa): Identity()\n      (conv3): Conv2d(1024, 1024, kernel_size=(1, 1), stride=(1, 1), bias=False)\n      (bn3): BatchNorm2d(1024, eps=1e-05, momentum=0.1, affine=True, track_running_stats=True)\n      (se): SEModule(\n        (fc1): Conv2d(1024, 64, kernel_size=(1, 1), stride=(1, 1))\n        (bn): Identity()\n        (act): ReLU(inplace=True)\n        (fc2): Conv2d(64, 1024, kernel_size=(1, 1), stride=(1, 1))\n        (gate): Sigmoid()\n      )\n      (act3): ReLU(inplace=True)\n    )\n    (34): Bottleneck(\n      (conv1): Conv2d(1024, 512, kernel_size=(1, 1), stride=(1, 1), bias=False)\n      (bn1): BatchNorm2d(512, eps=1e-05, momentum=0.1, affine=True, track_running_stats=True)\n      (act1): ReLU(inplace=True)\n      (conv2): Conv2d(512, 1024, kernel_size=(3, 3), stride=(1, 1), padding=(1, 1), groups=64, bias=False)\n      (bn2): BatchNorm2d(1024, eps=1e-05, momentum=0.1, affine=True, track_running_stats=True)\n      (drop_block): Identity()\n      (act2): ReLU(inplace=True)\n      (aa): Identity()\n      (conv3): Conv2d(1024, 1024, kernel_size=(1, 1), stride=(1, 1), bias=False)\n      (bn3): BatchNorm2d(1024, eps=1e-05, momentum=0.1, affine=True, track_running_stats=True)\n      (se): SEModule(\n        (fc1): Conv2d(1024, 64, kernel_size=(1, 1), stride=(1, 1))\n        (bn): Identity()\n        (act): ReLU(inplace=True)\n        (fc2): Conv2d(64, 1024, kernel_size=(1, 1), stride=(1, 1))\n        (gate): Sigmoid()\n      )\n      (act3): ReLU(inplace=True)\n    )\n    (35): Bottleneck(\n      (conv1): Conv2d(1024, 512, kernel_size=(1, 1), stride=(1, 1), bias=False)\n      (bn1): BatchNorm2d(512, eps=1e-05, momentum=0.1, affine=True, track_running_stats=True)\n      (act1): ReLU(inplace=True)\n      (conv2): Conv2d(512, 1024, kernel_size=(3, 3), stride=(1, 1), padding=(1, 1), groups=64, bias=False)\n      (bn2): BatchNorm2d(1024, eps=1e-05, momentum=0.1, affine=True, track_running_stats=True)\n      (drop_block): Identity()\n      (act2): ReLU(inplace=True)\n      (aa): Identity()\n      (conv3): Conv2d(1024, 1024, kernel_size=(1, 1), stride=(1, 1), bias=False)\n      (bn3): BatchNorm2d(1024, eps=1e-05, momentum=0.1, affine=True, track_running_stats=True)\n      (se): SEModule(\n        (fc1): Conv2d(1024, 64, kernel_size=(1, 1), stride=(1, 1))\n        (bn): Identity()\n        (act): ReLU(inplace=True)\n        (fc2): Conv2d(64, 1024, kernel_size=(1, 1), stride=(1, 1))\n        (gate): Sigmoid()\n      )\n      (act3): ReLU(inplace=True)\n    )\n  )\n  (layer4): Sequential(\n    (0): Bottleneck(\n      (conv1): Conv2d(1024, 1024, kernel_size=(1, 1), stride=(1, 1), bias=False)\n      (bn1): BatchNorm2d(1024, eps=1e-05, momentum=0.1, affine=True, track_running_stats=True)\n      (act1): ReLU(inplace=True)\n      (conv2): Conv2d(1024, 2048, kernel_size=(3, 3), stride=(2, 2), padding=(1, 1), groups=64, bias=False)\n      (bn2): BatchNorm2d(2048, eps=1e-05, momentum=0.1, affine=True, track_running_stats=True)\n      (drop_block): Identity()\n      (act2): ReLU(inplace=True)\n      (aa): Identity()\n      (conv3): Conv2d(2048, 2048, kernel_size=(1, 1), stride=(1, 1), bias=False)\n      (bn3): BatchNorm2d(2048, eps=1e-05, momentum=0.1, affine=True, track_running_stats=True)\n      (se): SEModule(\n        (fc1): Conv2d(2048, 128, kernel_size=(1, 1), stride=(1, 1))\n        (bn): Identity()\n        (act): ReLU(inplace=True)\n        (fc2): Conv2d(128, 2048, kernel_size=(1, 1), stride=(1, 1))\n        (gate): Sigmoid()\n      )\n      (act3): ReLU(inplace=True)\n      (downsample): Sequential(\n        (0): Conv2d(1024, 2048, kernel_size=(3, 3), stride=(2, 2), padding=(1, 1), bias=False)\n        (1): BatchNorm2d(2048, eps=1e-05, momentum=0.1, affine=True, track_running_stats=True)\n      )\n    )\n    (1): Bottleneck(\n      (conv1): Conv2d(2048, 1024, kernel_size=(1, 1), stride=(1, 1), bias=False)\n      (bn1): BatchNorm2d(1024, eps=1e-05, momentum=0.1, affine=True, track_running_stats=True)\n      (act1): ReLU(inplace=True)\n      (conv2): Conv2d(1024, 2048, kernel_size=(3, 3), stride=(1, 1), padding=(1, 1), groups=64, bias=False)\n      (bn2): BatchNorm2d(2048, eps=1e-05, momentum=0.1, affine=True, track_running_stats=True)\n      (drop_block): Identity()\n      (act2): ReLU(inplace=True)\n      (aa): Identity()\n      (conv3): Conv2d(2048, 2048, kernel_size=(1, 1), stride=(1, 1), bias=False)\n      (bn3): BatchNorm2d(2048, eps=1e-05, momentum=0.1, affine=True, track_running_stats=True)\n      (se): SEModule(\n        (fc1): Conv2d(2048, 128, kernel_size=(1, 1), stride=(1, 1))\n        (bn): Identity()\n        (act): ReLU(inplace=True)\n        (fc2): Conv2d(128, 2048, kernel_size=(1, 1), stride=(1, 1))\n        (gate): Sigmoid()\n      )\n      (act3): ReLU(inplace=True)\n    )\n    (2): Bottleneck(\n      (conv1): Conv2d(2048, 1024, kernel_size=(1, 1), stride=(1, 1), bias=False)\n      (bn1): BatchNorm2d(1024, eps=1e-05, momentum=0.1, affine=True, track_running_stats=True)\n      (act1): ReLU(inplace=True)\n      (conv2): Conv2d(1024, 2048, kernel_size=(3, 3), stride=(1, 1), padding=(1, 1), groups=64, bias=False)\n      (bn2): BatchNorm2d(2048, eps=1e-05, momentum=0.1, affine=True, track_running_stats=True)\n      (drop_block): Identity()\n      (act2): ReLU(inplace=True)\n      (aa): Identity()\n      (conv3): Conv2d(2048, 2048, kernel_size=(1, 1), stride=(1, 1), bias=False)\n      (bn3): BatchNorm2d(2048, eps=1e-05, momentum=0.1, affine=True, track_running_stats=True)\n      (se): SEModule(\n        (fc1): Conv2d(2048, 128, kernel_size=(1, 1), stride=(1, 1))\n        (bn): Identity()\n        (act): ReLU(inplace=True)\n        (fc2): Conv2d(128, 2048, kernel_size=(1, 1), stride=(1, 1))\n        (gate): Sigmoid()\n      )\n      (act3): ReLU(inplace=True)\n    )\n  )\n  (global_pool): SelectAdaptivePool2d(pool_type=avg, flatten=Flatten(start_dim=1, end_dim=-1))\n  (fc): Linear(in_features=2048, out_features=1000, bias=True)\n)\n","output_type":"stream"}],"execution_count":13},{"cell_type":"code","source":"import tensorflow as tf\nfrom tensorflow.keras.applications import InceptionV3, ResNet50, DenseNet121\nfrom tensorflow.keras.layers import GlobalAveragePooling2D, Dense, Input\nfrom tensorflow.keras.models import Model\nfrom tensorflow.keras.preprocessing.image import 
…
